orbslam_independant_files_donttouch/ego_thetas.npy (npy, 26336 bytes, 1 tensors)

array f8 [1638, 2]
0	0x0000000000000000	0.0
1	0x3ed3000000000000	4.5299530029296875e-06
2	0x0000000000000000	0.0
3	0x4000f89d00000000	2.1213932037353516
4	0x0000000000000000	0.0
5	0x4001b9d120000000	2.215730905532837
6	0x0000000000000000	0.0
7	0x4002bb1ec0000000	2.341367244720459
8	0x0000000000000000	0.0
9	0x4003c3f720000000	2.470686197280884
10	0x0000000000000000	0.0
11	0x4004844a00000000	2.564594268798828
12	0x0000000000000000	0.0
13	0x400537d220000000	2.6522562503814697
14	0x0000000000000000	0.0
15	0x400642dd60000000	2.782648801803589
16	0x0000000000000000	0.0
17	0x400758fb20000000	2.918447732925415
18	0x3f5184bda12f54e2	0.0010692455150452186
19	0x400823cf80000000	3.0174856185913086
20	0x3f53f684bda11949	0.0012184425636561794
21	0x40093dfba0000000	3.1552650928497314
22	0xbf299bc466f13de0	-0.00019537708746718199
23	0x400a5aede0000000	3.2943990230560303
24	0x3f265965965b50ce	0.0001705109127018212
25	0x400b81c6c0000000	3.4383673667907715
26	0x3f71297b425ed2bd	0.004189950448495847
27	0x400cd39b00000000	3.603322982788086
28	0x3f54841041041dcc	0.00125218951512972
29	0x400e193ba0000000	3.7623207569122314
30	0xbf74734d34d355ca	-0.004992772662452303
31	0x400f5a7a20000000	3.9191782474517822
32	0xbf80de0d8b8363d7	-0.008236032314401882
33	0x40104f25a0000000	4.077291965484619
34	0xbf7d74fea53fa1de	-0.007191652974122024
35	0x4010f6edc0000000	4.241141319274902
36	0xbf569c71c71c74f4	-0.001380072699652954
37	0x40119b3140000000	4.401555061340332
38	0x3f7d212f684be41f	0.007111725983798527
39	0x401239f770000000	4.556607961654663
40	0x3f890e38e38e4066	0.012234157986114446
41	0x4012d9cbe0000000	4.712691783905029
42	0x3f8ff2e0d8b83388	0.015599972356562977
43	0x401378f840000000	4.868134498596191
44	0x3f91e0ee643b99e8	0.01745960699818197
45	0x401417ab30000000	5.023113965988159
46	0x3f97f1451451423b	0.02338130890376731
47	0x4014b6f6d0000000	5.178675889968872
48	0x3f9fbdcc87732379	0.030997463004300372
49	0x4015554a90000000	5.333292245864868
50	0x3fa20fb990ee6603	0.035276221219827895
51	0x4015f4d560000000	5.489095211029053
52	0x3fa42b21dcc87786	0.03939157314401513
53	0x4016939fc0000000	5.644164085388184
54	0x3fa2973788cde0a0	0.03630994362805606
55	0x401736ac90000000	5.803392648696899
56	0x3f98e1861861863e	0.02429780505952394
57	0x4017d31a30000000	5.9561545848846436
58	0x3f90a8f93a3e4cbc	0.016269582919971923
59	0x40186fb9f0000000	6.109107732772827
60	0x3f97e8e38e38e1c2	0.023349338107637292
61	0x401909eb10000000	6.259685754776001
62	0x3fa49c0ad602b5f9	0.04025300848421049
63	0x4019a42230000000	6.4102866649627686
64	0x3fabe23e4e8f927a	0.054460475053734705
65	0x401a3e23c0000000	6.560683250427246
66	0x3faf9638e38e3aee	0.06169297960069807
67	0x401ad833e0000000	6.711135387420654
68	0x3fae57befbefc023	0.05926319909474411
69	0x401b6a86c0000000	6.854029655456543
70	0x3fa724a28a28a1f8	0.04520137726314383
71	0x401c03a590000000	7.00356125831604
72	0x3f9cb529fd4a8148	0.02803483589616576
73	0x401c9c2440000000	7.152482032775879
74	0x3f8b0f529fd4aabe	0.013212819578787612
75	0x401d384df0000000	7.30498480796814
76	0x3f6dea53fa94fdd0	0.003651775380290913
77	0x401dcd4e30000000	7.450493574142456
78	0xbf56c924924947a8	-0.0013907296316983762
79	0x401e5cd260000000	7.590646266937256
80	0xbf6bbf529fd49f51	-0.0033871282345393845
81	0x401ef0e550000000	7.735249757766724
82	0xbf644877321da5dd	-0.0024759605448039083
83	0x401f7754e0000000	7.86653470993042
84	0xbf5fdd75d75d464f	-0.0019448900979636312
85	0x401fffb200000000	7.999702453613281
86	0xbf71b34d34d33c95	-0.0043213859436967055
87	0x402040d9e8000000	8.126662492752075
88	0xbf84c53fa94fe978	-0.010141846994873957
89	0x402083d020000000	8.257447242736816
90	0xbf8ee79e79e79971	-0.015090215773807288
91	0x4020c6abd0000000	8.3880295753479
92	0xbf9267f529fd483c	-0.017974692046955662
93	0x402109da30000000	8.519242763519287
94	0xbf945e596596583c	-0.019891163659473174
95	0x402138a888000000	8.610660791397095
96	0xbf8e93cf3cf3d4a5	-0.014930361793157163
97	0x40215ee730000000	8.685357570648193
98	0xbf7134a7f52a076c	-0.004200607380541271
99	0x402222bd60000000	9.067851066589355
100	0xbfa73a4924924756	-0.04536655970981822
101	0x4022e5d780000000	9.448909759521484
102	0xbfb22e38e38e39e8	-0.0710177951388925
103	0x4023a48ba0000000	9.821377754211426
104	0xbfbac5fd4a7f522e	-0.10458357876570609
105	0x40246071a0000000	10.188366889953613
106	0xbfc0ab88cde233c4	-0.13023481419477723
107	0x4025198168000000	10.54981541633606
108	0xbfb4a7cc87732134	-0.08068540865781842
109	0x4025c528e0000000	10.885077476501465
110	0xbfaebbda12f6842f	-0.060026945891202714
111	0x402671e8b8000000	11.22247862815857
112	0xbfb28fc466f11992	-0.0725062133143182
113	0x4027188ba8000000	11.547940492630005
114	0xbfb3873cf3cf3d9b	-0.0762823195684547
115	0x4027bdbf90000000	11.870602130889893
116	0xbfb2adcc87732212	-0.0729644613921965
117	0x40286a2e50000000	12.207384586334229
118	0xbfb1512cb2cb2c97	-0.06764487614707303
119	0x40290dc650000000	12.526903629302979
120	0xbfb20415ac056a50	-0.07037482690558616
121	0x4029ae44d8000000	12.84036898612976
122	0xbfb15e8f93a3e48e	-0.06784913401124212
123	0x402a8095b0000000	13.251142024993896
124	0xbfb07f4d34d34c0e	-0.06444246806795226
125	0x402ad0d4f0000000	13.407874584197998
126	0xbfafb0c30c30c12e	-0.06189546130952049
127	0x402b070d98000000	13.51377558708191
128	0xbfae6934d34d337e	-0.05939641074528533
129	0x402b36fbc8000000	13.607389688491821
130	0xbfaded965965956d	-0.05845327225942296
131	0x402b69c798000000	13.706600904464722
132	0xbfae09fd4a7f5215	-0.05866996321097787
133	0x402b978a60000000	13.795977592468262
134	0xbfad973788cde0c5	-0.05779431862805632
135	0x402bc1fb78000000	13.87887167930603
136	0xbfacdfffffffffbd	-0.056396484374999535
137	0x402bf023c0000000	13.969022750854492
138	0xbfab7e5ed097b489	-0.05369850441261643
139	0x402c22d730000000	14.068048000335693
140	0xbfaa5e28a28a2943	-0.051499624100943574
141	0x402c535c28000000	14.16281247138977
142	0xbfaa25d1f2747c3a	-0.051069794508514524
143	0x402c80b408000000	14.251373529434204
144	0xbfaadf990ee64289	-0.052487166470318654
145	0x402caef620000000	14.341721534729004
146	0xbfaa07c9d1f2749c	-0.05084067046957694
147	0x402cdf5f30000000	14.436273097991943
148	0xbfa8353fa94fe932	-0.04728125516699534
149	0x402d1020a8000000	14.531499147415161
150	0xbfa75e233788cbeb	-0.04564008763227164
151	0x402d3c2e88000000	14.617542505264282
152	0xbfa77c66f119bb70	-0.045870987826552745
153	0x402d6bb508000000	14.710365533828735
154	0xbfa79b21dcc8773c	-0.04610544033151462
155	0x402d9d9d08000000	14.807838678359985
156	0xbfa7b7c466f11844	-0.04632390743840678
157	0x402dd453e0000000	14.914702415466309
158	0xbfa81d097b425e8b	-0.04709653501157359
159	0x402e048590000000	15.00883150100708
160	0xbfa907efbefbf1dc	-0.04888867575025177
161	0x402e32dcf8000000	15.099342107772827
162	0xbfa9a980ad602d84	-0.05012132755663415
163	0x402e61fe40000000	15.19139289855957
164	0xbfaa03990ee6429c	-0.050808699673443786
165	0x402e8ff258000000	15.281145811080933
166	0xbfabcf9e79e79ea5	-0.054318382626488394
167	0x402ebd0460000000	15.369174003601074
168	0xbfae76b580ad5e88	-0.05949942775504008
169	0x402eebc860000000	15.4605131149292
170	0xbfb07d34d34d34d1	-0.06441049727182536
171	0x402f1b5f58000000	15.553461790084839
172	0xbfb1aab015ac05de	-0.06901073960400292
173	0x402f4a8770000000	15.645564556121826
174	0xbfb2939bc466f09b	-0.0725648264405571
175	0x402f7747e0000000	15.732970237731934
176	0xbfb34b86186185d0	-0.07537115187871923
177	0x402fa56180000000	15.823009490966797
178	0xbfb3d69fd4a7f3f7	-0.0774936575107431
179	0x402fd521e8000000	15.916274309158325
180	0xbfb47f684bda124b	-0.08006908275462725
181	0x4030044740000000	16.016712188720703
182	0xbfb53988cde23474	-0.08290915514426606
183	0x40301c1aa8000000	16.109781742095947
184	0xbfb5e215ac056ae1	-0.08548102807746318
185	0x403034b5ac000000	16.205897092819214
186	0xbfb65f19bc466ea7	-0.08738861891327564
187	0x40304d1c88000000	16.30121660232544
188	0xbfb6152f684bd969	-0.08626076027198838
189	0x403065e3e8000000	16.398008823394775
190	0xbfb584d8b8362e85	-0.0840583276496379
191	0x40307fb1cc000000	16.498806715011597
192	0xbfb4db990ee64309	-0.08147579778438908
193	0x403098ff3c000000	16.597644567489624
194	0xbfb4adbc466f113e	-0.0807759925801905
195	0x4030b1c5e4000000	16.69442582130432
196	0xbfb4ab4a7f529f09	-0.0807386933180362
197	0x4030c929f8000000	16.785796642303467
198	0xbfb4b6b2cb2cb2d5	-0.08091275654141879
199	0x4030e107a4000000	16.87902283668518
200	0xbfb4c362e0d8b781	-0.08110635747354246
201	0x4030fb60e4000000	16.98194718360901
202	0xbfb47cf684bda0f9	-0.0800317834924761
203	0x403113af90000000	17.076897621154785
204	0xbfb471529fd4a8ce	-0.07985416795841901
205	0x40312d7d80000000	17.177696228027344
206	0xbfb40b9659659722	-0.07830180819072699
207	0x403145b6dc000000	17.272321462631226
208	0xbfb3fe33788cde49	-0.07809755032655476
209	0x40315d99f0000000	17.36563014984131
210	0xbfb43ad8b8362ea2	-0.0790229272590133
211	0x403175b65c000000	17.459813833236694
212	0xbfb48f9659659690	-0.08031596834697496
213	0x40318e269c000000	17.55527663230896
214	0xbfb479015ac056df	-0.07997139421089682
215	0x4031a710d8000000	17.65260076522827
216	0xbfb407fa94fea479	-0.07824674737516259
217	0x4031be4998000000	17.74331045150757
218	0xbfb2dd0ee643b8b3	-0.07368558046047972
219	0x4031d65bf0000000	17.837340354919434
220	0xbfb2796b015ac0e9	-0.07216519148892399
221	0x4031eeb928000000	17.932512760162354
222	0xbfb2268a28a28af7	-0.0709005688864116
223	0x403206ec1c000000	18.027040243148804
224	0xbfb235ac056b00f6	-0.07113146908068643
225	0x40321f753c000000	18.122882604599
226	0xbfb3067f529fd4ff	-0.07431789176174063
227	0x40323803e0000000	18.218809127807617
228	0xbfb362b015ac05bd	-0.07572460679150246
229	0x4032516c6c000000	18.318060636520386
230	0xbfb34147c9d1f27b	-0.07521485020874678
231	0x40326b383c000000	18.418826818466187
232	0xbfb2465145145180	-0.07138545929439566
233	0x4032843038000000	18.516360759735107
234	0xbfb1ab9e79e79e6e	-0.06902494884672603
235	0x4032a03e94000000	18.6259548664093
236	0xbfb2d6a7f529fc64	-0.07358789191674614
237	0x4032babecc000000	18.72947382926941
238	0xbfb5e68208208144	-0.08554852198040402
239	0x4032d597fc000000	18.83435034751892
240	0xbfb93d21dcc876c3	-0.09858905449115256
241	0x4032efbf94000000	18.936517000198364
242	0xbfbc62de23378808	-0.11088360175884315
243	0x403308ccdc000000	19.0343759059906
244	0xbfbe3dac056b01bd	-0.1181285393931892
245	0x403323a6e8000000	19.139265537261963
246	0xbfbf247f529fd45b	-0.12165065543361335
247	0x40333e95a8000000	19.244471073150635
248	0xbfbefe8cde2336c5	-0.12107162879257334
249	0x40335b5c78000000	19.356879711151123
250	0xbfbe921041041076	-0.1194162520151297
251	0x40337746d4000000	19.465924501419067
252	0xbfbdf41b1706c696	-0.11700600921792623
253	0x4033938df8000000	19.576385021209717
254	0xbfbda588cde233f3	-0.11580710436301427
255	0x4033b08fc0000000	19.689693450927734
